2.DRL/DRL.pth (torch, 548519 bytes, 12 tensors)

fc1.weight f4 [4000, 8]
-0.00209932 0.0015017517 0.26240662 -0.018679991 0.43070713 0.3618336 0.15270834 -0.11956251
-0.36355576 0.23578376 0.63680565 0.50959885 -0.20093396 0.04572787 0.43558535 0.039412726
-0.15129158 -0.05380062 0.015102328 0.19472116 0.057335146 0.17113395 0.015078237 -0.5060775
-0.50688833 0.40584654 0.22833449 0.05105755 0.27016664 0.29261678 0.15378006 0.056995474
-0.09029052 0.015030204 0.07729392 0.48809543 -0.3657193 -0.109036 0.3753983 -0.58091784
-0.004538203 -0.13130088 -0.40077692 -0.11635531 -0.043294426 -0.3170803 0.5379444 -0.37530753
0.050306756 0.010838768 0.36883637 0.07771266 0.18682484 0.24765378 0.39341384 0.08637907
0.0402379 0.31738532 0.301744 0.4027468 -0.5942445 -0.3460938 -0.3328156 -0.5758032
-0.08742898 0.16153453 0.48769832 0.4063758 -0.38031325 0.26914486 0.031798396 0.08325341
0.34267393 -0.16019678 -0.37964597 -0.14881615 0.28024936 0.28533483 0.16821651 0.43504032
0.2688615 0.40861738 -0.18691531 -0.22004636 -0.36185843 -0.28861862 -0.25562796 -0.27022627
0.12974328 -0.0688477 -0.08248852 -0.07981091 0.60294425 0.3404907 0.60853434 0.877514
-0.14404668 -0.043555625 -0.051045377 -0.020359604 0.5520311 -0.20438707 0.16594344 -0.40630966
-0.07517267 0.22335437 0.2656769 0.43708146 -0.059918355 -0.10259862 -0.2571929 -0.032880116
0.028133549 -0.8014164 0.16603567 0.19675118 -0.0971243 -0.14758064 -0.08841015 0.26260135
0.24055965 -0.10710988 -0.12256869 -0.10929939 0.6390852 0.7933474 0.6935043 0.8098602
0.15009616 -0.13924292 -0.14904636 -0.064334095 0.010159221 0.37219802 0.41220075 0.37890512
-0.22060196 0.12768395 -0.07803887 0.107774764 0.3684745 0.12435878 -0.2727388 0.37363806
0.23439638 -0.13262402 -0.29175755 -0.10256411 0.6490118 0.13351427 0.06522877 0.24419945
0.28473383 0.12310682 0.360521 0.70899945 0.33594605 0.7387741 -0.123953134 0.22518334
-0.30107585 0.4241603 0.33211794 0.12900825 -0.13780135 -0.24652794 -0.3056802 -0.44836828
-0.21528544 0.10158061 0.47942707 0.49010915 -0.10048278 -0.024072642 -0.25485024 -0.21110582
-0.19101246 -0.10333416 -0.24174795 -0.34678292 -0.08929691 0.098656595 0.051688522 -0.17435232
0.29933655 -0.07181541 -0.15639044 -0.16810393 -0.24131282 -0.2832453 -0.072155334 -0.5937926
0.15472235 0.3438713 -0.031306386 0.047599114 0.26419654 -0.13898428 -0.12129193 -0.028862633
-0.1957442 -0.28212306 0.003142207 -0.10648237 -0.10020007 0.11836581 -0.07239911 -0.2648434
-0.096514836 0.015761232 0.028292827 0.043234177 0.11094566 -0.089997806 0.011666156 -0.24862634
0.22698517 0.5428489 0.22669584 0.46687928 -0.5879731 -0.05166079 0.063908726 -0.29173356
0.32149866 -0.3069269 -0.008843648 -0.08115765 -0.2218331 -0.051729973 -0.29466155 0.69883704
0.37380093 0.3172555 0.0715308 0.37296435 0.087289594 0.4202501 0.15740451 0.026292983
0.098234855 -0.0507674 0.2865484 0.5403541 -0.10671299 -0.43126333 0.31926337 -0.2103428
-0.025904616 -0.035777733 0.24686842 0.3158992 -0.21047348 -0.2593725 -0.062286973 0.24687749
00000000: bf94 09bb 6dd6 c43a 295a 863e c806 99bc
00000010: a585 dc3e 4142 b93e 935f 1c3e 30dd f4bd
00000020: fb23 babe 4c71 713e b205 233f 1275 023f
00000030: a2c1 4dbe 264d 3b3d 0b05 df3e 3d6f 213d
00000040: 2eec 1abe 0a5e 5cbd c16f 773c fc64 473e
00000050: 42d8 6a3d bd3d 2f3e b60a 773c 4c8e 01bf
00000060: 6fc3 01bf 1ecb cf3e 84d0 693e b921 513d
00000070: 4853 8a3e ded1 953e 8578 1d3e 1674 693d
00000080: 3cea b8bd 3f41 763c 464c 9e3d a5e7 f93e
00000090: 8f3f bbbe 444e dfbd 3534 c03e 08b7 14bf
000000a0: 35b5 94bb bd73 06be a232 cdbe b14b eebd
000000b0: 7f55 31bd 5958 a2be b9b6 093f 4f28 c0be
000000c0: 750e 4e3d 1795 313c 1fd8 bc3e d127 9f3d
000000d0: 034f 3f3e f498 7d3e 8a6d c93e 83e7 b03d
000000e0: 7fd0 243d 5480 a23e 317e 9a3e d434 ce3e
000000f0: 6820 18bf 3533 b1be ce66 aabe d767 13bf
00000100: f70d b3bd 4f69 253e 98b3 f93e 7d10 d03e
00000110: 6bb8 c2be 5bcd 893e 093f 023d c480 aa3d
00000120: f572 af3e a00a 24be f560 c2be 4363 18be
00000130: d87c 8f3e 6817 923e f340 2c3e 9bbd de3e
00000140: 37a8 893e 4c36 d13e ba66 3fbe d553 61be
00000150: 8245 b9be d2c5 93be abe1 82be 195b 8abe
00000160: 6cdb 043e 0600 8dbd beef a8bd e773 a3bd
00000170: 8e5a 1a3f cc54 ae3e e8c8 1b3f c2a4 603f
00000180: f980 13be 6267 32bd f514 51bd 2fc9 a6bc
00000190: e951 0d3f d84a 51be 14ed 293e d207 d0be
000001a0: 21f4 99bd 02b7 643e cd06 883e 24c9 df3e
000001b0: f36c 75bd 3a1f d2bd caae 83be 4dad 06bd
000001c0: 5478 e63c a029 4dbf 4105 2a3e 2479 493e
000001d0: 1be9 c6bd 611f 17be 6110 b5bd af73 863e
000001e0: 4555 763e 6d5c dbbd 4b05 fbbd 5cd8 dfbd
000001f0: 169b 233f d118 4b3f 7f89 313f 0053 4f3f
00000200: cfb2 193e b295 0ebe 9c9f 18be 98c1 83bd
00000210: dc72 263c bd90 be3e fa0b d33e daff c13e
00000220: 7be5 61be 95bf 023e d8d2 9fbd 04b9 dc3d
00000230: b1a8 bc3e d1af fe3d 6ca4 8bbe 7d4d bf3e
00000240: 9b05 703e 97ce 07be 3f61 95be 220d d2bd
00000250: a325 263f f7b7 083e a996 853d 6c0f 7a3e
00000260: a2c8 913e 6e1f fc3d 3596 b83e fd80 353f
00000270: 1f01 ac3e 4d20 3d3f 24db fdbd 7696 663e
00000280: 9d26 9abe 8a2b d93e 5d0b aa3e bd1a 043e
00000290: cc1b 0dbe d271 7cbe 1d82 9cbe 8790 e5be
000002a0: c973 5cbe 7f09 d03d 7777 f53e 96ef fa3e
000002b0: eac9 cdbd fd33 c5bc bb7b 82be 202c 58be
000002c0: c598 43be dca0 d3bd c68c 77be 888d b1be
000002d0: 4ce1 b6bd 780c ca3d 58b7 533d 6a89 32be
000002e0: a442 993e f513 93bd d124 20be 7023 2cbe
000002f0: b51a 77be 8705 91be 2dc6 93bd cb02 18bf
00000300: 896f 1e3e e60f b03e 203b 00bd 4af7 423d
00000310: c544 873e e551 0ebe e767 f8bd 5471 ecbc
00000320: 2b71 48be 6f72 90be 7ced 4d3b 6e13 dabd
00000330: b235 cdbd c669 f23d fc45 94bd 8e99 87be
00000340: 92a9 c5bd b31d 813c 5cc6 e73c 5216 313d
00000350: 7a37 e33d c550 b8bd 6823 3f3c e797 7ebe
00000360: cd6e 683e 25f8 0a3f f422 683e cd0a ef3e
00000370: 6885 16bf 449a 53bd 94e2 823d 1a5e 95be
00000380: 799b a43e 8625 9dbe f3e4 10bc fb35 a6bd
00000390: 3728 63be cfe2 53bd e1dd 96be fce6 323f
000003a0: d662 bf3e 506f a23e bd7e 923d 2ff5 be3e
000003b0: e3c4 b23d 052b d73e a62e 213e 6264 d73c
000003c0: 5b2f c93d 7af1 4fbd 79b6 923e a554 0a3f
000003d0: 578c dabd 8cce dcbe 7d76 a33e 1a64 57be
000003e0: eb35 d4bc ac8b 12bd 13cb 7c3e 8abd a13e
000003f0: 5c86 57be 79cc 84be a020 7fbd 74cd 7c3e

fc1.bias f4 [4000]
0.49585602 -0.008663544 0.31603098 1.0289443 -0.70137084 0.7310352 0.76615506 -0.34128916
-0.13374425 -0.013940932 -0.7919843 -0.06290595 0.53258616 -0.58190143 -0.23360586 -0.061000057
0.24753831 0.77067167 0.4199806 0.85175836 0.28989887 -0.2473791 -0.3222474 -0.6580607
0.99621326 -0.03983737 0.48110384 -0.9706212 -0.25067207 0.73103094 -0.24287085 -0.12929332
-0.04002858 0.36770374 -0.57729626 0.9490157 0.9922031 1.0914391 -0.42101523 0.4971183
0.058100488 0.2543377 0.08804074 0.016319182 -0.13946941 -0.32994053 0.7583348 0.38733834
0.23067887 0.10087843 0.63825166 0.74537957 0.5463028 0.23470005 -0.40371978 -0.38843194
0.49093932 -0.37365097 -0.366004 -0.38153005 0.064013034 -1.1528567 -0.6452328 0.30638137
0.8733098 0.34864038 0.5206929 -0.15636188 0.7822602 -0.04908741 0.14506711 -0.68067664
0.25864178 0.5945001 0.37225834 0.3959398 0.74852806 0.37560824 0.6256917 0.7855133
-0.09257883 -0.43617094 -0.2592403 0.49409398 -0.12964034 -0.47140595 0.6435093 -0.5095455
0.2498497 0.31200984 -0.12628102 -0.38807532 0.408999 0.6063203 0.4309553 0.6163006
-0.083988965 -0.45310882 -0.7421847 0.85586274 -0.67538506 1.0846444 -1.0513195 0.7790162
0.301387 -0.10608754 0.8155525 0.07941139 -0.5358417 0.52384675 -0.15833147 -0.15867451
0.1911416 0.27980134 -0.18274553 0.50423604 -0.5408405 -0.28608772 -0.14911985 0.833178
-0.0070401765 -0.27726507 0.7535169 -0.087834835 -0.4172597 0.32034108 0.6663819 0.4706327
0.25888515 -0.110389404 0.39195845 0.2006998 0.59979725 -0.492176 0.79805416 -0.28372142
-0.63045037 0.3677726 -0.47162274 0.9405701 0.28201294 0.34672397 1.3162344 -0.4829603
-0.6721845 0.7513768 -0.42445487 0.58884174 0.8731881 -0.27024752 -0.7111112 -0.65447026
0.6046652 -0.9806676 0.4890208 -1.0933819 -1.130645 -0.46047652 -0.71426886 -0.5266156
0.52693284 -0.70218784 0.5129471 0.6072138 -0.034727786 0.58126414 0.00539407 -0.80811906
1.1132619 -0.4606143 3.1794698 -0.54121083 -0.33117422 0.2881238 0.83483624 -0.007566203
-0.7956046 1.029687 -0.17815888 -1.3953654 0.76484656 -0.20845443 0.40244704 0.5702746
-0.79174274 0.10330127 0.69817203 -0.15408683 0.40303022 -0.07088357 -0.99288124 -0.8298786
-0.116227925 0.41189903 0.22087963 0.37419927 0.4176771 0.065382086 0.3206326 0.09721478
0.26873195 -0.5220865 1.1271425 -0.30345953 -0.92378 -0.32440394 -0.29149044 -0.5828671
-0.012859777 1.0749675 0.88372976 -0.28373116 0.31887788 -0.40332666 -0.59778297 -0.8448557
0.52149945 0.7860894 0.8847189 -0.98440635 0.4984545 0.4759461 -0.20234057 -0.0059298356
0.8229336 0.0019559823 -0.029974598 0.26317883 -0.031432174 0.7074253 -0.21718377 0.54748213
0.8582467 0.498333 1.067342 0.47944516 0.3285819 -0.56281734 -0.6290905 -0.6145093
-0.009661778 0.45090848 0.51240855 -0.3114078 -0.3076117 0.84824955 0.32015204 -0.8037975
-0.61875063 -0.08761098 0.033056423 0.49000445 0.6091426 0.93048686 -0.71459925 -0.02193384
00000000: d7e0 fd3e 8af1 0dbc d0ce a13e 72b4 833f
00000010: 0a8d 33bf 1f25 3b3f bd22 443f 74bd aebe
00000020: 41f4 08be 8268 64bc 7cbf 4abf d6d4 80bd
00000030: 9157 083f 7ef7 14bf 6036 6fbe 32db 79bd
00000040: af7a 7d3e bd4a 453f b207 d73e d60c 5a3f
00000050: a06d 943e f250 7dbe 9cfd a4be ab76 28bf
00000060: d507 7f3f 832c 23bd 3e53 f63e a27a 78bf
00000070: 1758 80be d824 3b3f 23b3 78be 7865 04be
00000080: 02f5 23bd aa43 bc3e b0c9 13bf b1f2 723f
00000090: 0601 7e3f 47b4 8b3f 4f8f d7be 4a86 fe3e
000000a0: c7fa 6d3d 8d38 823e b44e b43d ceaf 853c
000000b0: 12d1 0ebe f7ed a8be 3b22 423f 3651 c63e
000000c0: 1537 6c3e 5a99 ce3d 7664 233f 32d1 3e3f
000000d0: 80da 0b3f 3655 703e 5cb4 cebe 8de0 c6be
000000e0: 665c fb3e 2e4f bfbe e064 bbbe e857 c3be
000000f0: 4419 833d cf90 93bf fa2d 25bf 05de 9c3e
00000100: 3b91 5f3f fe80 b23e 214c 053f 541d 20be
00000110: 3442 483f e10f 49bd 798c 143e d340 2ebf
00000120: b26c 843e 2931 183f a598 be3e 9fb8 ca3e
00000130: 899f 3f3f b94f c03e 552d 203f 6617 493f
00000140: f899 bdbd cc51 dfbe 25bb 84be e3f9 fc3e
00000150: 70c0 04be 1f5c f1be 07bd 243f 9371 02bf
00000160: 9ad8 7f3e c1bf 9f3e d04f 01be cfb1 c6be
00000170: 5168 d13e cf37 1b3f 2ca6 dc3e e0c5 1d3f
00000180: 6802 acbd e1fd e7be d1ff 3dbf d219 5b3f
00000190: 09e6 2cbf a1d5 8a3f a391 86bf 9b6d 473f
000001a0: 664f 9a3e 6d44 d9bd 0cc8 503f 70a2 a23d
000001b0: ec2c 09bf d21a 063f a521 22be 927b 22be
000001c0: a0ba 433e 1f42 8f3e a521 3bbe 9d15 013f
000001d0: 8674 0abf 177a 92be e0b2 18be 274b 553f
000001e0: 48b1 e6bb b0f5 8dbe 7ce6 403f c0e2 b3bd
000001f0: 10a3 d5be bf03 a43e 0198 2a3f c5f6 f03e
00000200: 988c 843e d713 e2bd c7ae c83e 4084 4d3e
00000210: 508c 193f 7efe fbbe 474d 4c3f ef43 91be
00000220: 3265 21bf b14c bc3e 8978 f1be 34c9 703f
00000230: 0064 903e ce85 b13e 5e7a a83f 9346 f7be
00000240: 4914 2cbf 3b5a 403f 2652 d9be 55be 163f
00000250: 4189 5f3f e25d 8abe 620b 36bf 5d8b 27bf
00000260: 57cb 1a3f 080d 7bbf ef60 fa3e f0f3 8bbf
00000270: fab8 90bf 94c3 ebbe 53da 36bf 48d0 06bf
00000280: 12e5 063f 95c2 33bf 8050 033f 5d72 1b3f
00000290: b93e 0ebd bacd 143f bdc0 b03b e4e0 4ebf
000002a0: 5e7f 8e3f a3d5 ebbe 6f7c 4b40 cb8c 0abf
000002b0: ab8f a9be f684 933e d4b7 553f e9ed f7bb
000002c0: beac 4bbf c9cc 833f 486f 36be 559b b2bf
000002d0: fccc 433f 1475 55be 8a0d ce3e 84fd 113f
000002e0: a7af 4abf 9e8f d33d 67bb 323f f0c8 1dbe
000002f0: fa59 ce3e 682b 91bd 772d 7ebf ed72 54bf
00000300: e808 eebd 6ee4 d23e 452e 623e 0c97 bf3e
00000310: c6d9 d53e 0be7 853d f529 a43e 8b18 c73d
00000320: 3c97 893e 76a7 05bf 3546 903f 0c5f 9bbe
00000330: d97c 6cbf 4618 a6be 3c3e 95be c736 15bf
00000340: d0b1 52bc 8998 893f 1d3c 623f 3645 91be
00000350: f643 a33e d580 cebe 4e08 19bf 7748 58bf
00000360: fd80 053f 283d 493f f07c 623f 0e02 7cbf
00000370: 6e35 ff3e 35af f33e 5e32 4fbe 114f c2bb
00000380: c7ab 523f f02f 003b 4a8d f5bc 60bf 863e
00000390: 06bf 00bd d319 353f 6c65 5ebe ca27 0c3f
000003a0: 0eb6 5b3f 8125 ff3e aa9e 883f d679 f53e
000003b0: e33b a83e cc14 10bf 130c 21bf 7b50 1dbf
000003c0: 6f4c 1ebc 7add e63e 352d 033f d870 9fbe
000003d0: 487f 9dbe e226 593f f8ea a33e acc5 4dbf
000003e0: 7166 1ebf 636d b3bd 2c66 073d dde1 fa3e
000003f0: c5f0 1b3f 6334 6e3f faef 36bf 99ae b3bc

fc2.weight f4 [8, 4000]
-0.017540809 -0.016995545 -0.015624365 -0.020697514 -0.015308431 -0.0012219278 -0.022838026 0.011952489
-0.018546283 -0.024578713 0.0021347106 -0.01250682 -0.005187153 0.00062270276 -0.0045487992 -0.011973386
-0.015866902 -0.0076159984 -0.0069196727 -0.010535813 -0.0064053154 0.0006950684 0.013486473 -0.0027075615
0.0006426601 -0.0007057851 0.011986119 0.004255646 -0.011413066 0.003978462 -0.022808302 -0.002296988
0.013504952 0.00555344 0.005920979 -0.008602541 -0.0007863417 -0.009734761 -0.0114547 -0.020702057
0.011888241 -0.0002526641 0.01230746 0.0045532957 0.0016362295 -0.0037479997 0.003904339 -0.021657431
-0.013509982 -0.025296852 -0.017639454 -0.019263614 -0.025451086 0.018706936 0.0023988495 -0.010926063
0.0043247305 0.0092952205 0.008112694 -0.007199497 0.008507271 -0.0007801354 -0.009690724 0.008327311
-0.0018612938 0.004374603 -0.003674129 -0.005900545 -0.008579013 -0.0059749233 0.0035262322 -0.0034102248
-0.013552403 0.0030995505 -0.012179768 -0.0059577264 -0.0033531096 0.024843343 -0.0028677182 0.010328562
-0.0040169246 -0.0031134188 0.006247647 0.005862263 -0.009479312 0.015406894 -0.014049827 -0.0054320153
0.004090623 0.0014649732 -0.0025489759 -0.013538668 0.0045095934 0.0028082067 -0.0115854675 -0.0027598236
-0.0042589484 -0.015310245 -0.0033701854 -0.018569758 0.01558724 0.0033372343 0.0056175925 -0.013241271
-0.017110217 -0.015227193 -2.4665147e-05 0.0020741597 -0.011677455 0.007099862 -0.0056108683 0.004534986
-0.022296123 0.0080161 0.0052162353 -0.025440827 0.0021166345 -0.0016185632 0.012586748 0.015696373
-0.008608685 0.007656928 0.00045552477 0.013165241 -0.0006194748 0.002407901 -0.019921714 -0.010960578
0.0036127102 -0.0026921649 -0.020311818 0.016963983 -0.005283421 -0.0021776194 0.0045637693 0.0029779123
-0.011374104 -0.0043847226 -0.0025707483 0.007361248 0.000780398 0.0043334514 0.001139665 0.011033271
0.005073322 -0.015175548 -0.014965831 -0.0039317207 3.8745813e-05 0.01734722 -0.0027932962 -0.0062845526
-0.013498183 -0.015804794 0.008801889 -0.0007284703 -0.008912044 0.007700134 -0.00461697 0.0032317769
0.01128183 -0.0072367173 -0.025196832 -0.009216893 -0.00469042 -0.0055069197 -0.014613817 -0.002654218
0.0049652625 0.0040135114 -0.021500003 -0.0010512294 0.00060229003 0.0025100894 0.002585222 -0.0049118698
-0.0047192574 -0.007321709 0.00078409817 -0.011061678 -0.004353501 -0.011867439 -0.022578105 0.012087335
-0.0049412474 0.0032372726 0.0115792565 -0.0019706972 0.002463732 0.009145897 0.011792864 -0.0028454019
0.0062846392 0.0052353945 -0.0006952528 -0.005940357 0.0024623526 -0.0076309983 -0.012995844 0.0010436764
-0.019560192 0.004426064 0.008724175 -0.019637704 -0.0062166573 0.008068297 -0.0047986573 -0.0041181203
-0.012129014 0.0036413744 -0.015696209 -0.011440575 0.005612077 0.0143875275 0.015103608 -0.0029563997
6.726105e-05 -0.009294911 -0.01605129 0.011568444 0.0031468645 0.004193268 -0.011599197 -0.00012513064
-0.0155851515 -0.0018751007 -0.003390979 -0.010043742 -0.0073965387 0.0020603063 -0.013063412 0.00581498
-0.00769124 -0.017572291 -0.015080076 -0.02357754 0.0128171 0.0057363547 0.012753675 -0.004243762
-0.012224837 -0.0171425 -0.011435625 -0.004407754 -0.011542488 0.000769455 -0.0032342505 -0.0010540178
0.012208959 -0.0041959146 -0.008386681 -0.015598104 -0.017089667 0.013621595 -0.019563038 -0.0033442667
00000000: beb1 8fbc 3e3a 8bbc 56fd 7fbc d58d a9bc
00000010: 37d0 7abc 1829 a0ba d016 bbbc 5fd4 433c
00000020: 60ee 97bc 4c59 c9bc 80e6 0b3b 68e9 4cbc
00000030: fef8 a9bb e03c 233a 180e 95bb 052c 44bc
00000040: 4efb 81bc a08f f9bb 6cbe e2bb 679e 2cbc
00000050: aee3 d1bb 4035 363a 5ef6 5c3c 5871 31bb
00000060: 3078 283a 7004 39ba 6d61 443c f272 8b3b
00000070: defd 3abc c25d 823b 7ad8 babc 1089 16bb
00000080: e043 5d3c a2f9 b53b c604 c23b acf1 0cbc
00000090: 8022 4eba 8c7e 1fbc 7eac 3bbc 5c97 a9bc
000000a0: e6c6 423c 0078 84b9 3ba5 493c d033 953b
000000b0: c076 d63a 00a1 75bb f0df 7f3b ed6a b1bc
000000c0: f958 5dbc 583b cfbc 9e80 90bc bace 9dbc
000000d0: cc7e d0bc 4a3f 993c 0436 1d3b 3b03 33bc
000000e0: 78b6 8d3b fb4a 183c 1beb 043c c2e9 ebbb
000000f0: 1562 0b3c 0082 4cba d8c5 1ebc 466f 083c
00000100: a8f6 f3ba d458 8f3b a8c9 70bb 5c59 c1bb
00000110: fd8e 0cbc 4ac9 c3bb 5c18 673b 147e 5fbb
00000120: e60a 5ebc d421 4b3b a68d 47bc 0839 c3bb
00000130: d8bf 5bbb 4484 cb3c 54f0 3bbb 2139 293c
00000140: 68a0 83bb 800a 4cbb 10b9 cc3b 3a18 c03b
00000150: 1e4f 1bbc 326d 7c3c 3f31 66bc 0cff b1bb
00000160: a20a 863b 5804 c03a b80c 27bb 4ad1 5dbc
00000170: 36c5 933b e409 383b f9d0 3dbc 28de 34bb
00000180: a68e 8bbb d2d7 7abc 54de 5cbb 9b1f 98bc
00000190: a061 7f3c 80b5 5a3b c813 b83b eaf1 58bc
000001a0: ba2a 8cbc 7a7b 79bc 00e8 ceb7 a0ee 073b
000001b0: cc52 3fbc f6a5 e83b 60db b7bb 389a 943b
000001c0: 5ca6 b6bc f655 033c f4ec aa3b 4869 d0bc
000001d0: 3cb7 0a3b f825 d4ba a638 4e3c ae95 803c
000001e0: 710b 0dbc f8e6 fa3b 80d3 ee39 06b3 573c
000001f0: 4064 22ba e0cd 1d3b dd32 a3bc ff93 33bc
00000200: 38c3 6c3b 086f 30bb f864 a6bc 0df8 8a3c
00000210: 8c20 adbb 64b6 0ebb ac8b 953b 1429 433b
00000220: 735a 3abc b8ad 8fbb 007a 28bb a036 f13b
00000230: a093 4c3a a0ff 8d3b d060 953a e5c4 343c
00000240: 1c3e a63b dda2 78bc 3f33 75bc aad5 80bb
00000250: 0083 2238 c21b 8e3c bc0f 37bb a6ee cdbb
00000260: 7c27 5dbc 0e79 81bc cc35 103c d0f6 3eba
00000270: d203 12bc 6851 fc3b f449 97bb 38cc 533b
00000280: 6dd7 383c fc21 edbb 9669 cebc 7402 17bc
00000290: 18b2 99bb 6473 b4bb cb6e 6fbc 64f2 2dbb
000002a0: a4b3 a23b c683 833b c620 b0bc 68c9 89ba
000002b0: 00e3 1d3a 5080 243b d46c 293b c0f3 a0bb
000002c0: 00a4 9abb f2ea efbb f08b 4d3a 0a3c 35bc
000002d0: d0a7 8ebb a66f 42bc b8f5 b8bc f509 463c
000002e0: 30ea a1bb 6c28 543b ecb6 3d3c d026 01bb
000002f0: 9076 213b acd8 153c db36 413c ec79 3abb
00000300: 60ef cd3b ac8d ab3b a041 36ba 54a7 c2bb
00000310: 6c5f 213b 740d fabb 85ec 54bc f8cb 883a
00000320: b23c a0bc 8408 913b d8ef 0e3c 40df a0bc
00000330: 1ab5 cbbb e430 043c 0e3e 9dbb 4cf1 86bb
00000340: c6b8 46bc 20a4 6e3b 5695 80bc 4071 3bbc
00000350: 84e5 b73b aab9 6b3c 2075 773c 28c0 41bb
00000360: 800e 8d38 af49 18bc ff7d 83bc 9289 3d3c
00000370: a03b 4e3b ae67 893b 8f0a 3ebc 8035 03b9
00000380: dd58 7fbc f0c5 f5ba 303b 5ebb 828e 24bc
00000390: aa5e f2bb 3406 073b ec07 56bc 968b be3b
000003a0: cc06 fcbb c4f3 8fbc 6c12 77bc af25 c1bc
000003b0: d0fe 513c 08f8 bb3b caf4 503c 420f 8bbb
000003c0: af4a 48bc 6e6e 8cbc 7d5c 3bbc ec6e 90bb
000003d0: b41c 3dbc 40b5 493a b8f5 53bb f826 8aba
000003e0: 1608 483c e27d 89bb 4a68 09bc 318f 7fbc
000003f0: a1ff 8bbc 1c2d 5f3c aa42 a0bc 7c2b 5bbb

fc2.bias f4 [8]
-0.0025555184 2.2242694 -0.0013455376 -0.072778784 -0.01624744 -0.014339997 -0.0107851755 -0.012858783
00000000: 7c7a 27bb 6e5a 0e40 c05c b0ba 0b0d 95bd
00000010: 5a19 85bc 4ff2 6abc 4eb4 30bc a5ad 52bc

fc4.weight f4 [4, 8]
-0.27782694 0.32552627 -0.13726453 -0.34001708 -0.07705372 0.23733588 0.013058394 -0.22042038
0.14149614 0.3797368 -0.2495117 0.027447855 0.08802546 0.28892425 0.05536586 0.015006304
-0.040593885 0.3771497 -0.30312598 -0.09474882 -0.29831034 0.07610628 0.005097151 -0.2297731
0.021924773 0.3849969 -0.015978724 0.16170849 0.07153898 -0.18784791 -0.007842552 0.2716168
00000000: 553f 8ebe 61ab a63e 138f 0cbe b816 aebe
00000010: 57ce 9dbd 2d08 733e e0f2 553c e1b5 61be
00000020: 5de4 103e dd6c c23e ff7f 7fbe 53da e03c
00000030: b146 b43d e1ed 933e 50c7 623d 00dd 753c
00000040: c645 26bd c419 c13e 5433 9bbe ab0b c2bd
00000050: 22bc 98be 9cdd 9b3d 0006 a73b a449 6bbe
00000060: 959b b33c 501e c53e d0e5 82bc e996 253e
00000070: 0783 923d 345b 40be 0c7e 00bc 5b11 8b3e

fc4.bias f4 [4]
9.83487 1.8461106 1.7520801 2.5498803
00000000: a15b 1d41 5a4d ec3f 2944 e03f 3d31 2340

square_avg f4 [4000, 8]
0.016970804 0.17069994 0.13623704 0.14310442 0.0002549969 0.00041946012 4.045878e-05 0.00051267695
0.019052563 0.19465677 0.16154885 0.1777792 0.0005785346 0.00091322395 6.9473776e-05 0.001145378
0.005013282 0.036573835 0.054089867 0.07556632 7.829773e-05 0.00014071258 7.2594794e-06 0.00017671662
0.010137037 0.15673144 0.11983459 0.13443212 0.00024442232 0.00039895152 3.39551e-05 0.00048646994
0.008043348 0.12954056 0.10001613 0.11395039 0.00018103613 0.00029930472 2.1931084e-05 0.0003808749
2.6047072e-05 2.320728e-05 5.3830873e-10 8.2519255e-05 5.390537e-06 7.739012e-10 5.23191e-06 1.1236613e-07
0.033908077 0.22421771 0.20260063 0.21600814 0.001058558 0.0016447554 0.00012822659 0.002078127
0.03707926 0.23240152 0.21297719 0.22415142 0.0012968134 0.00201939 0.00015671298 0.0025500976
0.010732895 0.14406891 0.10802306 0.12171359 0.00018975591 0.00029097102 2.3841976e-05 0.00037066906
0.028134098 0.010149597 0.0036438848 0.008111008 0.00035878073 0.00011317537 2.750773e-05 7.369642e-05
0.011903014 0.19254696 0.08178298 0.0633231 0.00018116667 0.00020243641 5.0380928e-05 0.00020465188
0.08823263 0.0698113 0.079125814 0.028814768 0.002395016 0.0012799298 0.0002640193 0.0012418546
1.0683282e-05 0.0005956166 0.00034081202 0.0008558889 1.1913603e-05 7.089526e-06 2.2264921e-06 5.002792e-06
0.015948592 0.17145634 0.1324007 0.1456393 0.0003219918 0.0004936745 3.8302485e-05 0.00062795525
0.08636809 0.1357885 0.4068307 0.37620854 0.019229397 0.013392928 0.00083560066 0.027095286
0.09812343 0.08028991 0.08712501 0.018359564 0.0017056311 0.0008930058 0.0001486098 0.00066299323
0.067177616 0.014532084 0.03216714 0.016571116 0.001316439 0.000423599 0.00012087583 0.0003279283
0.000580844 0.06196054 0.032461084 0.058370747 4.1757277e-05 7.383228e-05 5.333877e-06 9.1279966e-05
0.004251488 0.0005764914 0.0009749774 0.0010481926 1.2734261e-05 3.952214e-06 1.0634492e-06 3.2625417e-06
0.025002934 0.19966072 0.16867907 0.18459992 0.00064387545 0.0010014932 7.889864e-05 0.0012726358
0.04641813 0.2824037 0.26553994 0.26915202 0.0027118663 0.0042959875 0.00033404218 0.0053611193
0.012603493 0.15546429 0.11527511 0.13082677 0.00025666456 0.00040693537 3.029543e-05 0.0005088603
0.0 0.0 0.0 0.0 0.0 0.0 0.0 0.0
0.054998916 0.040211737 0.032733902 0.001254187 0.00034761097 8.909001e-05 2.7162901e-05 4.6700225e-05
0.10532166 0.39242333 0.35879636 0.34800744 0.0092401635 0.010857254 0.0010936231 0.016140692
7e-44 7e-44 7e-44 0.0 7e-44 7e-44 0.0 7e-44
0.01294427 0.15505 0.11933851 0.13325068 0.0003488426 0.0005411714 2.810225e-05 0.0006996228
0.080835715 0.33503664 0.30403638 0.30431446 0.004895367 0.0075125997 0.0005757863 0.009534363
0.057074655 0.0038036297 0.06503947 0.025799727 0.0023534552 8.2570376e-05 2.828773e-05 0.0020280525
0.11938556 0.42060554 0.37517184 0.3683883 0.01202812 0.013312526 0.0014609084 0.020189539
0.03025249 0.18977197 0.19148691 0.21047768 0.000976928 0.001495282 0.00011847584 0.0018829743
0.07950326 0.33298847 0.3372071 0.33366027 0.00747082 0.0093788365 0.0008955926 0.014080269
00000000: 5b06 8b3c f7cb 2e3e b981 0b3e f789 123e
00000010: 1bb1 8539 fcea db39 49b2 2938 2b65 063a
00000020: 1f14 9c3c 1b54 473e 106d 253e c00b 363e
00000030: cda8 173a 6c65 6f3a 73b2 9138 8220 963a
00000040: 7546 a43b 72ce 153d 568d 5d3d 84c2 9a3d
00000050: c633 a438 3f8c 1339 7496 f336 024d 3939
00000060: d115 263c 357e 203e d66b f53d 93a8 093e
00000070: cf25 8039 5e2a d139 036b 0e38 e40c ff39
00000080: 3fc8 033c 48a6 043e 42d5 cc3d d25e e93d
00000090: 84d4 3d39 00ec 9c39 a5f8 b737 2ab0 c739
000000a0: a97f da37 41ad c237 1cf8 1330 300e ad38
000000b0: 5ce0 b436 75ba 5430 c48d af36 ef4d f133
000000c0: 32e3 0a3d 5499 653e 8a76 4f3e 3d31 5d3e
000000d0: 50bf 8a3a d594 d73a 9074 0639 3031 083b
000000e0: 6ce0 173d aafa 6d3e b116 5a3e f387 653e
000000f0: d6f9 a93a be57 043b 5253 2439 8a1f 273b
00000100: 06d9 2f3c cd86 133e 323b dd3d fa44 f93d
00000110: 37f9 4639 788d 9839 4100 c837 5c56 c239
00000120: 7b79 e63c 7f4a 263c 3ece 6e3b 09e4 043c
00000130: bc1a bc39 9058 ed38 66c0 e637 778d 9a38
00000140: dc04 433c 082b 453e d67d a73d 8baf 813d
00000150: 8ff7 3d39 1c45 5439 1c50 5338 d297 5639
00000160: 4fb3 b43d 3af9 8e3d b70c a23d f30c ec3c
00000170: b3f5 1c3b 51c3 a73a 126c 8a39 bac5 a23a
00000180: 593c 3337 2723 1c3a 04af b239 bb5d 603a
00000190: 89e0 4737 91e2 ed36 d86a 1536 a8dd a736
000001a0: 9fa6 823c 4092 2f3e 0d94 073e 7822 153e
000001b0: 02d1 a839 ef69 013a fba6 2038 5d9d 243a
000001c0: c1e1 b03d 240c 0b3e 1d4c d03e 689e c03e
000001d0: f886 9d3c 036e 5b3c 360c 5b3a eff6 dd3c
000001e0: f0f4 c83d 096f a43d 996e b23d cc66 963c
000001f0: 7c8f df3a 9b18 6a3a 24d4 1b39 b9cc 2d3a
00000200: 6b94 893d fa17 6e3c b1c1 033d 26c0 873c
00000210: 5d8c ac3a 7f16 de39 b87e fd38 cbed ab39
00000220: c843 183a 56ca 7d3d eaf5 043d 2a16 6f3d
00000230: 8924 2f38 67d6 9a38 a8f9 b236 8f6d bf38
00000240: 1150 8b3b af1f 173a a095 7f3a 8263 893a
00000250: 3ca5 5537 429d 8436 d6bb 8e35 0af2 5a36
00000260: f4d2 cc3c dc73 4c3e 35ba 2c3e c307 3d3e
00000270: c0c9 283a 8944 833a 6376 a538 92ce a63a
00000280: f020 3e3d 3897 903e daf4 873e 4bce 893e
00000290: 91b9 313b 5bc5 8c3b 6222 af39 54ac af3b
000002a0: e27e 4e3c 0832 1f3e 5b15 ec3d 74f7 053e
000002b0: ef90 8639 f159 d539 f122 fe37 0965 053a
000002c0: 0000 0000 0000 0000 0000 0000 0000 0000
000002d0: 0000 0000 0000 0000 0000 0000 0000 0000
000002e0: 8b46 613d 10b5 243d fc13 063d 8863 a43a
000002f0: 8e3f b639 d6d5 ba38 e3db e337 fcdf 4338
00000300: e2b2 d73d b6eb c83e 28b4 b73e 082e b23e
00000310: 0e64 173c a0e2 313c e757 8f3a 7c39 843c
00000320: 3200 0000 3200 0000 3200 0000 0000 0000
00000330: 3200 0000 3200 0000 0000 0000 3200 0000
00000340: 3414 543c 6dc5 1e3e c067 f43d de72 083e
00000350: dce4 b639 66dd 0d3a 1fbd eb37 e466 373a
00000360: 328d a53d ec89 ab3e a8aa 9b3e 1bcf 9b3e
00000370: 5169 a03b 412c f63b 5df0 163a 0436 1c3c
00000380: 1dc7 693d 5146 793b 6a33 853d f359 d33c
00000390: 6d3c 1a3b a229 ad38 704b ed37 13e9 043b
000003a0: 6b80 f43d 9c59 d73e 8616 c03e 649d bc3e
000003b0: 9811 453c c81c 5a3c f47b bf3a 8864 a53c
000003c0: 12d4 f73c 9553 423e 2515 443e 7687 573e
000003d0: 440c 803a 57fd c33a 3b76 f838 22ce f63a
000003e0: 9bd2 a23d 777d aa3e 69a6 ac3e 85d5 aa3e
000003f0: c8cd f43b b1a9 193c 34c6 6a3a eeb0 663c

square_avg f4 [4000]
0.00067072123 0.0014041468 0.00019078044 0.0006075883 0.00045945816 5.4036395e-06 0.002562574 0.0031264413
0.00046034675 0.0003738419 0.00040102264 0.0023499802 1.2054476e-05 0.0007784102 0.028224433 0.0016829462
0.0013394643 0.000108206914 1.3032688e-05 0.0015681835 0.0065238466 0.00062297925 0.0 0.0003732039
0.018982932 7e-44 0.00082390005 0.011536376 0.0022600754 0.023639359 0.002256355 0.015957693
1.1043433e-07 0.0003127345 0.0022233273 9.268297e-06 0.0058790734 0.0008849029 0.0033924025 0.00037141258
7.756167e-05 1.6413104e-09 0.00017765057 1.1639069e-09 0.016672438 0.00393076 0.0007676307 0.0010568927
0.0030525313 6.557535e-05 0.0032462731 0.004612882 0.0061668204 0.0001336776 0.010987944 0.037472453
0.00047184757 0.001952454 0.00035138646 0.009931332 0.0002003894 0.0018344792 0.0010375449 0.0007137505
7.814643e-06 0.00018931487 0.0005431079 0.02207859 0.00041582453 0.013595174 0.007883319 0.03672795
1.7758827e-06 0.00544181 0.0013653651 0.00038898923 9.096588e-06 0.015252736 0.0006403504 0.00022082195
0.0 0.00093610445 1.24032e-40 4.833149e-05 0.007972122 0.008668371 4.010654e-06 0.0036292055
0.0036472338 1.9479847e-05 7e-44 7.5085745e-31 2.3973653e-08 0.0005664884 0.00015414995 0.00038233772
2.944508e-05 0.0025751796 0.00011918112 0.00131408 0.0007599207 0.0037717102 2.6385475e-30 0.003770651
0.0029004177 7e-44 0.021143364 0.00020546117 0.0006450548 0.013019916 0.0038676609 0.038886573
0.0007963928 0.00013414554 7e-44 8.225032e-05 0.004633551 7e-44 0.0024564257 2.7503445e-05
7e-44 7e-44 0.002738525 0.0 0.008872221 0.0018500031 0.0052316585 5.5308556e-05
1.863334e-05 0.042386837 0.0012148055 0.0025840614 0.0066761742 5.8633e-41 0.005536497 0.00068073295
0.053307094 0.004039006 0.029532736 0.0027526622 0.00048893114 1.0834786e-05 0.014004834 0.010949471
0.00083811436 0.002922261 0.03334337 0.0006426548 0.00065298466 7e-44 0.0033290861 0.006601374
0.00115078 0.03436202 0.007106041 0.012829315 0.00045342263 0.0071633556 0.011093309 0.030554624
0.018493347 0.013733109 3.6655698e-10 0.0019754926 0.0016143396 4.0211527e-09 0.00057373516 0.007262646
0.00010524373 0.033415332 0.07401817 0.0036385998 7e-44 0.005641705 0.00047427093 7e-44
0.0027488137 0.003042565 0.0055606426 0.00012394311 0.0022546302 0.0 1.7185648e-06 0.00014340563
0.0028016139 0.002623499 5.7785433e-06 0.0012943186 0.0014975829 0.0033256316 5.901855e-05 0.0020312427
0.0006239728 0.0023371975 5.024564e-05 1.4333137e-09 0.00092669396 0.00049539906 1.3670607e-09 0.0007742725
5.293633e-07 0.035766035 0.000378492 0.024448171 7.259531e-30 0.00021351676 0.0 0.00064497045
1.3252971e-38 0.0011822078 0.001562696 0.00036305762 3.5861738e-09 7e-44 0.003462468 0.001239236
0.0005100561 0.00046403767 0.004258341 0.0002857254 0.0021090428 0.010071224 6.8415327e-35 0.00034762832
0.0032363487 0.0025267166 0.0002074953 0.0008546215 7e-44 2.7901143e-07 0.0049849865 0.0025756548
0.0012268431 0.00059268606 0.00039134434 0.005285135 6.6851517e-06 3.1178258e-27 0.035343874 0.06255715
2.382116e-14 0.00041901183 0.00082729675 0.04940229 0.04074192 0.0027045007 7.941588e-10 0.000115852024
4.0965765e-06 0.015103773 4.6178713e-05 0.00014881365 0.0037256726 0.00047729778 0.0006596239 7e-44
00000000: 57d3 2f3a 590b b83a 3c0c 4839 9046 1f3a
00000010: 6ee3 f039 e950 b536 dcf0 273b fbe4 4c3b
00000020: b25a f139 3600 c439 5940 d239 2002 1a3b
00000030: 953d 4a37 390e 4c3a ed36 e73c 4e96 dc3a
00000040: f790 af3a 25ed e238 f8a6 5a37 828b cd3a
00000050: fec5 d53b 6e4f 233a 0000 0000 94aa c339
00000060: 1882 9b3c 3200 0000 fffa 573a 1103 3d3c
00000070: c61d 143b 54a7 c13c 5bdf 133b b5b9 823c
00000080: ea27 ed33 84f6 a339 3eb5 113b 087f 1b37
00000090: 3ea5 c03b d4f8 673a 1253 5e3b 27ba c239
000000a0: 9ba8 a238 7a94 e130 b647 3a39 55f7 9f30
000000b0: a394 883c 9bcd 803b d33a 493a 6f87 8a3a
000000c0: fa0c 483b 7f85 8938 6dbf 543b a927 973b
000000d0: 0a13 ca3b cf2b 0c39 c706 343c b77c 193d
000000e0: 4f62 f739 7ce9 ff3a 4b3a b839 07b7 223c
000000f0: 9f1f 5239 e872 f03a 3bfe 873a fc1a 3b3a
00000100: a31b 0337 d382 4639 5b5f 0e3a 29de b43c
00000110: 0603 da39 4bbe 5e3c 0929 013c 0c70 163d
00000120: dd5a ee35 3651 b23b 0df6 b23a 40f1 cb39
00000130: 8c9d 1837 9de6 793c 30dd 273a 718c 6739
00000140: 0000 0000 e864 753a c059 0100 8bb7 4a38
00000150: 819d 023c c805 0e3c 4193 8636 f7d7 6d3b
00000160: 6e06 6f3b a768 a337 3200 0000 ccaa 730d
00000170: 9fee cd32 6580 143a 50a3 2139 8074 c839
00000180: d400 f737 58c4 283b e0f0 f938 353d ac3a
00000190: 6a35 473a cc2e 773b 7d10 560e 071d 773b
000001a0: ef14 3e3b 3200 0000 d934 ad3c 1071 5739
000001b0: e518 293a 7c51 553c 9578 7d3b 8747 1f3d
000001c0: 04c5 503a 6ba9 0c39 3200 0000 ce7d ac38
000001d0: 0bd5 973b 3200 0000 fcfb 203b 33b7 e637
000001e0: 3200 0000 3200 0000 d378 333b 0000 0000
000001f0: cb5c 113c ce7b f23a 556e ab3b 1cfb 6738
00000200: cb4e 9c37 d29d 2d3d 1c3a 9f3a 5b59 293b
00000210: cfc3 da3b 72a3 0000 816b b53b 3773 323a
00000220: 8a58 5a3d a359 843b a3ee f13c 0266 343b
00000230: 9d2b 003a 0dc7 3537 8874 653c 6965 333c
00000240: e7b4 5b3a 6783 3f3b 0f93 083d d577 283a
00000250: 0f2d 2b3a 3200 0000 cc2c 5a3b 5750 d83b
00000260: c5d5 963a 31bf 0c3d cbd9 e83b 0c32 523c
00000270: 5bb9 ed39 95ba ea3b b6c0 353c b14d fa3c
00000280: 5c7f 973c d600 613c 4f84 c92f 4477 013b
00000290: 4098 d33a 6f2a 8a31 b766 163a 7efb ed3b
000002a0: 4cb6 dc38 84de 083d d796 973d 9375 6e3b
000002b0: 3200 0000 0dde b83b 91a7 f839 3200 0000
000002c0: 7125 343b c565 473b 0d36 b63b baf6 0139
000002d0: 6bc2 133b 0000 0000 70a9 e635 285f 1639
000002e0: 489b 373b 02ef 2b3b 4fe5 c136 20a6 a93a
000002f0: 8b4a c43a d7f2 593b af8a 7738 991e 053b
00000300: 1b92 233a ab2b 193b d8be 5238 3efe c430
00000310: 61ed 723a abdd 013a 2ce3 bb30 8cf8 4a3a
00000320: 9219 0e35 687f 123d 5670 c639 8847 c83c
00000330: a43d 130f 78e3 5f39 0000 0000 3c13 293a
00000340: e44f 9000 50f4 9a3a 60d3 cc3a c558 be39
00000350: a370 7631 3200 0000 93ea 623b dc6d a23a
00000360: 49b5 053a 154a f339 8e89 8b3b 6acd 9539
00000370: de37 0a3b c601 253c 0fe1 b506 e241 b639
00000380: ec18 543b 4597 253b 1893 5939 ae08 603a
00000390: 3200 0000 0acb 9534 1959 a33b 51cc 283b
000003a0: 06ce a03a 7d5e 1b3a 592d cd39 ed2e ad3b
000003b0: 0451 e036 0505 7713 bdc4 103d f71d 803d
000003c0: db8f d628 d1ae db39 f2de 583a 0e5a 4a3d
000003d0: 00e1 263d fe3d 313b f54b 5a30 95f5 f238
000003e0: 5375 8936 d175 773c 04b0 4138 dc0a 1c39
000003f0: 6a2a 743b d33d fa39 9cea 2c3a 3200 0000

square_avg f4 [8, 4000]
7e-44 7e-44 7e-44 7e-44 7e-44 7e-44 7e-44 7e-44
7e-44 7e-44 7e-44 7e-44 7e-44 7e-44 7e-44 7e-44
7e-44 7e-44 7e-44 7e-44 7e-44 7e-44 0.0 7e-44
7e-44 0.0 7e-44 7e-44 7e-44 7e-44 7e-44 7e-44
7e-44 7e-44 7e-44 7e-44 7e-44 0.0 7e-44 7e-44
7e-44 0.0 7e-44 7e-44 7e-44 7e-44 7e-44 7e-44
7e-44 7e-44 7e-44 7e-44 7e-44 7e-44 7e-44 7e-44
7e-44 7e-44 7e-44 7e-44 7e-44 7e-44 7e-44 7e-44
7e-44 7e-44 7e-44 7e-44 7e-44 7e-44 7e-44 7e-44
7e-44 7e-44 7e-44 0.0 7e-44 7e-44 7e-44 7e-44
0.0 7e-44 0.0 7e-44 0.0 7e-44 0.0 7e-44
7e-44 7e-44 0.0 7e-44 7e-44 7e-44 7e-44 7e-44
0.0 7e-44 7e-44 7e-44 7e-44 0.0 7e-44 7e-44
7e-44 0.0 7e-44 7e-44 7e-44 7e-44 7e-44 7e-44
7e-44 7e-44 0.0 7e-44 7e-44 0.0 7e-44 7e-44
7e-44 0.0 7e-44 0.0 7e-44 7e-44 7e-44 7e-44
7e-44 7e-44 7e-44 7e-44 7e-44 7e-44 7e-44 7e-44
7e-44 7e-44 7e-44 7e-44 7e-44 7e-44 7e-44 7e-44
7e-44 7e-44 7e-44 7e-44 7e-44 7e-44 7e-44 7e-44
7e-44 7e-44 7e-44 7e-44 7e-44 7e-44 7e-44 7e-44
7e-44 7e-44 7e-44 7e-44 7e-44 0.0 7e-44 7e-44
7e-44 7e-44 7e-44 7e-44 0.0 0.0 7e-44 7e-44
7e-44 7e-44 7e-44 7e-44 7e-44 0.0 7e-44 7e-44
7e-44 7e-44 7e-44 7e-44 7e-44 7e-44 7e-44 7e-44
7e-44 7e-44 0.0 7e-44 7e-44 7e-44 7e-44 7e-44
7e-44 7e-44 7e-44 7e-44 7e-44 7e-44 0.0 7e-44
0.0 7e-44 7e-44 0.0 0.0 7e-44 7e-44 7e-44
7e-44 7e-44 7e-44 7e-44 7e-44 7e-44 7e-44 7e-44
7e-44 7e-44 7e-44 7e-44 0.0 7e-44 7e-44 7e-44
7e-44 7e-44 7e-44 7e-44 0.0 7e-44 7e-44 0.0
7e-44 7e-44 7e-44 7e-44 7e-44 0.0 7e-44 0.0
7e-44 7e-44 7e-44 7e-44 7e-44 7e-44 7e-44 7e-44
00000000: 3200 0000 3200 0000 3200 0000 3200 0000
00000010: 3200 0000 3200 0000 3200 0000 3200 0000
00000020: 3200 0000 3200 0000 3200 0000 3200 0000
00000030: 3200 0000 3200 0000 3200 0000 3200 0000
00000040: 3200 0000 3200 0000 3200 0000 3200 0000
00000050: 3200 0000 3200 0000 0000 0000 3200 0000
00000060: 3200 0000 0000 0000 3200 0000 3200 0000
00000070: 3200 0000 3200 0000 3200 0000 3200 0000
00000080: 3200 0000 3200 0000 3200 0000 3200 0000
00000090: 3200 0000 0000 0000 3200 0000 3200 0000
000000a0: 3200 0000 0000 0000 3200 0000 3200 0000
000000b0: 3200 0000 3200 0000 3200 0000 3200 0000
000000c0: 3200 0000 3200 0000 3200 0000 3200 0000
000000d0: 3200 0000 3200 0000 3200 0000 3200 0000
000000e0: 3200 0000 3200 0000 3200 0000 3200 0000
000000f0: 3200 0000 3200 0000 3200 0000 3200 0000
00000100: 3200 0000 3200 0000 3200 0000 3200 0000
00000110: 3200 0000 3200 0000 3200 0000 3200 0000
00000120: 3200 0000 3200 0000 3200 0000 0000 0000
00000130: 3200 0000 3200 0000 3200 0000 3200 0000
00000140: 0000 0000 3200 0000 0000 0000 3200 0000
00000150: 0000 0000 3200 0000 0000 0000 3200 0000
00000160: 3200 0000 3200 0000 0000 0000 3200 0000
00000170: 3200 0000 3200 0000 3200 0000 3200 0000
00000180: 0000 0000 3200 0000 3200 0000 3200 0000
00000190: 3200 0000 0000 0000 3200 0000 3200 0000
000001a0: 3200 0000 0000 0000 3200 0000 3200 0000
000001b0: 3200 0000 3200 0000 3200 0000 3200 0000
000001c0: 3200 0000 3200 0000 0000 0000 3200 0000
000001d0: 3200 0000 0000 0000 3200 0000 3200 0000
000001e0: 3200 0000 0000 0000 3200 0000 0000 0000
000001f0: 3200 0000 3200 0000 3200 0000 3200 0000
00000200: 3200 0000 3200 0000 3200 0000 3200 0000
00000210: 3200 0000 3200 0000 3200 0000 3200 0000
00000220: 3200 0000 3200 0000 3200 0000 3200 0000
00000230: 3200 0000 3200 0000 3200 0000 3200 0000
00000240: 3200 0000 3200 0000 3200 0000 3200 0000
00000250: 3200 0000 3200 0000 3200 0000 3200 0000
00000260: 3200 0000 3200 0000 3200 0000 3200 0000
00000270: 3200 0000 3200 0000 3200 0000 3200 0000
00000280: 3200 0000 3200 0000 3200 0000 3200 0000
00000290: 3200 0000 0000 0000 3200 0000 3200 0000
000002a0: 3200 0000 3200 0000 3200 0000 3200 0000
000002b0: 0000 0000 0000 0000 3200 0000 3200 0000
000002c0: 3200 0000 3200 0000 3200 0000 3200 0000
000002d0: 3200 0000 0000 0000 3200 0000 3200 0000
000002e0: 3200 0000 3200 0000 3200 0000 3200 0000
000002f0: 3200 0000 3200 0000 3200 0000 3200 0000
00000300: 3200 0000 3200 0000 0000 0000 3200 0000
00000310: 3200 0000 3200 0000 3200 0000 3200 0000
00000320: 3200 0000 3200 0000 3200 0000 3200 0000
00000330: 3200 0000 3200 0000 0000 0000 3200 0000
00000340: 0000 0000 3200 0000 3200 0000 0000 0000
00000350: 0000 0000 3200 0000 3200 0000 3200 0000
00000360: 3200 0000 3200 0000 3200 0000 3200 0000
00000370: 3200 0000 3200 0000 3200 0000 3200 0000
00000380: 3200 0000 3200 0000 3200 0000 3200 0000
00000390: 0000 0000 3200 0000 3200 0000 3200 0000
000003a0: 3200 0000 3200 0000 3200 0000 3200 0000
000003b0: 0000 0000 3200 0000 3200 0000 0000 0000
000003c0: 3200 0000 3200 0000 3200 0000 3200 0000
000003d0: 3200 0000 0000 0000 3200 0000 0000 0000
000003e0: 3200 0000 3200 0000 3200 0000 3200 0000
000003f0: 3200 0000 3200 0000 3200 0000 3200 0000

square_avg f4 [8]
7e-44 0.14432767 7e-44 7e-44 7e-44 7e-44 7e-44 7e-44
00000000: 3200 0000 a2ca 133e 3200 0000 3200 0000
00000010: 3200 0000 3200 0000 3200 0000 3200 0000

square_avg f4 [4, 8]
7e-44 0.8912767 7e-44 7e-44 7e-44 7e-44 0.0 7e-44
7e-44 0.34194103 7e-44 7e-44 7e-44 0.0 0.0 0.0
7e-44 0.24466124 0.0 7e-44 0.0 0.0 0.0 0.0
7e-44 0.3874183 7e-44 7e-44 7e-44 0.0 7e-44 7e-44
00000000: 3200 0000 b62a 643f 3200 0000 3200 0000
00000010: 3200 0000 3200 0000 0000 0000 3200 0000
00000020: 3200 0000 e512 af3e 3200 0000 3200 0000
00000030: 3200 0000 0000 0000 0000 0000 0000 0000
00000040: 3200 0000 7a88 7a3e 0000 0000 3200 0000
00000050: 0000 0000 0000 0000 0000 0000 0000 0000
00000060: 3200 0000 b15b c63e 3200 0000 3200 0000
00000070: 3200 0000 0000 0000 3200 0000 3200 0000

square_avg f4 [4]
0.4217879 0.22560869 0.23222725 0.26796132
00000000: 95f4 d73e f705 673e fbcc 6d3e 3a32 893e
